models/weights/AASIST-L.pth (torch, 407977 bytes, 181 tensors)

pos_S f4 [1, 23, 24]
0	0xbe13a0d8	-0.14416826
1	0xbb2501dc	-0.002517811
2	0x3e0c6e39	0.13713922
3	0x3d988117	0.07446497
4	0x3db15930	0.08659589
5	0xbd38756f	-0.04503387
6	0xbee1470a	-0.4399951
7	0xbe4b7035	-0.19867022
8	0xbde3891a	-0.111101344
9	0xbf198291	-0.59964854
10	0x3f9410ef	1.1567668
11	0x3e6bcdd1	0.23027731
12	0xbf3057bd	-0.6888388
13	0x3d00d119	0.03144941
14	0x3dcc5827	0.09977751
15	0x3a82f5d3	0.0009991474
16	0x3e54b198	0.20770872
17	0xbf1c9437	-0.6116366
18	0xbf1700d4	-0.5898564
19	0x3eab529b	0.3346146
20	0xbf63d524	-0.889971
21	0xbba16aef	-0.0049260776
22	0xbf07ade8	-0.52999735
23	0xbf7585c8	-0.9590726
24	0x3e2f8229	0.17139496
25	0xbe9154d4	-0.2838503
26	0xbe9e7298	-0.30946803
27	0x3f205906	0.6263584
28	0x3ea664ff	0.3249893
29	0x3e3702b8	0.17872131
30	0xbf2aec04	-0.6676638
31	0xbf30eb17	-0.6910872
32	0x3ec03cce	0.3754639
33	0x3f01c000	0.50683594
34	0xbdbb41a5	-0.0914338
35	0xbd17114c	-0.03688173
36	0xbec5f827	-0.38665888
37	0xbea375da	-0.3192585
38	0xbf861f85	-1.0478369
39	0x3c490b75	0.012270798
40	0x3ef5f06b	0.48034987
41	0xbe202007	-0.15637217
42	0x3d950786	0.072768256
43	0x3f007205	0.5017398
44	0xbe0ac17e	-0.13550374
45	0x3e255a5c	0.1614775
46	0x3da2d51d	0.079508044
47	0xbf1f1003	-0.62133807
48	0xbe3eb4c8	-0.1862365
49	0x3e82e8f4	0.25568354
50	0xbe349bb4	-0.17637521
51	0xbea81bfb	-0.32833847
52	0xbf4aaa37	-0.7916598
53	0x3f33ab6e	0.70183456
54	0xbf44fb48	-0.76945925
55	0xbf9fa0be	-1.247093
56	0x3f07db52	0.5306903
57	0xbe14b6aa	-0.14522806
58	0xbe4ea6e6	-0.20180854
59	0xbded325c	-0.11581871
60	0x3c9e540e	0.01932719
61	0xbdcbe6dd	-0.09956143
62	0x3f1499fb	0.58047456
63	0x3e902fb0	0.28161383
64	0xbf14d127	-0.5813164
65	0x3d780e3c	0.06056045
66	0xbf33d6ee	-0.7024983
67	0x3eb3e131	0.35132745
68	0x3f06ff93	0.52733725
69	0xbea2cf3b	-0.3179873
70	0x3dae269c	0.08503458
71	0xbf16acce	-0.5885743
72	0xbe82b9b0	-0.25532293
73	0x3edb8a83	0.42879114
74	0x3e826c6b	0.2547334
75	0x3ebbe896	0.36700886
76	0xbf0405e7	-0.51571506
77	0xbf580a26	-0.84390485
78	0xbed1a314	-0.4094473
79	0xbedd3786	-0.43206424
80	0xbdf0d988	-0.11760241
81	0xbe330ec8	-0.17486107
82	0x3edb343d	0.42813292
83	0x3d43c71c	0.047797307
84	0x3e5d9f1c	0.21642727
85	0x3ec7869a	0.3896988
86	0x3f5be6b5	0.85898906
87	0x3e1dabc3	0.15397553
88	0x3ddba608	0.10725027
89	0x3d910c88	0.07082468
90	0xbe1ea26f	-0.15491651
91	0x3f74fbb3	0.9569656
92	0xbe46e759	-0.1942419
93	0xbdd1fff2	-0.10253896
94	0xbe8323f2	-0.25613362
95	0x3db02482	0.08600713
96	0x3e8bb4c1	0.27286342
97	0x3ef2e865	0.47442928
98	0xbece47b7	-0.4028909
99	0xbf40e7ac	-0.75353503
100	0xbf05ac7d	-0.5221632
101	0xbdaabfb5	-0.083373465
102	0x3f0b0906	0.54310644
103	0x3e1d82d2	0.15381935
104	0xbf88b773	-1.0680984
105	0xbf321538	-0.6956363
106	0x3ea8487d	0.32867804
107	0xbd7f9cb1	-0.062405292
108	0xbe6337a3	-0.22189192
109	0xbf174674	-0.5909188
110	0xbf1582ba	-0.584026
111	0x3ecf2c50	0.40463495
112	0xbf3fce3b	-0.7492406
113	0x3cb4bbca	0.022062201
114	0x3e8eaa29	0.27864197
115	0xbc6929b6	-0.014231136
116	0xbf46912d	-0.7756527
117	0x3ebcf0a8	0.36902356
118	0xbecc6d1d	-0.39926997
119	0x3f02a0a0	0.51026344
120	0xbed36acd	-0.4129242
121	0xbd8ba8fd	-0.06819341
122	0x3eb1dc96	0.34738606
123	0xbe7423c5	-0.2384177
124	0xbf3272b1	-0.69706255
125	0xbde9959a	-0.11405487
126	0xbe1379fe	-0.14402005
127	0xbe33d3d7	-0.17561279
128	0xbee8302c	-0.45349252
129	0xbed4355d	-0.41446963
130	0x3ee591fa	0.44837934
131	0xbf0d00f5	-0.55079585
132	0x3e55f0b6	0.20892605
133	0xbe27cfd4	-0.16387874
134	0xbed5ffe8	-0.41796803
135	0xbe6a6058	-0.22888315
136	0xbebb7b77	-0.36617634
137	0x3e3b28b5	0.18277247
138	0xbb9704f2	-0.004608744
139	0xbf6fa16e	-0.936057
140	0xbe4f4f73	-0.20245151
141	0xbc8ed725	-0.017436573
142	0xbdf79dda	-0.12090655
143	0x3e7b3a47	0.2453395
144	0x3eb4c9c9	0.353102
145	0x3eebb7a5	0.46038547
146	0xbe56f689	-0.20992483
147	0xbe8d2d8e	-0.27573818
148	0xbec90a3c	-0.3926562
149	0x3ccca476	0.024980765
150	0xbeed5ab3	-0.4635826
151	0xbf326b89	-0.69695336
152	0xbf4e8461	-0.80670744
153	0xbe0e3c72	-0.13890246
154	0xbf23ddbe	-0.64010227
155	0x3ea2305e	0.31677526
156	0x3e256226	0.16150722
157	0x3ca93ac5	0.020657906
158	0x3ef52aec	0.4788431
159	0x3f2128d5	0.6295293
160	0xbe8422da	-0.2580784
161	0xbcb619a7	-0.022229029
162	0xbe994138	-0.2993257
163	0x3ea6f0b9	0.32605532
164	0xbf1e19c3	-0.6175806
165	0xbf362daf	-0.7116346
166	0x3e2ecfec	0.17071503
167	0xbe333e70	-0.17504287
168	0x3e25b219	0.1618122
169	0x3db1c8bb	0.086808644
170	0xbd940803	-0.072280906
171	0xbe3e369b	-0.18575518
172	0x3e9a693c	0.30158412
173	0x3e9fd1d2	0.31214768
174	0xbea46284	-0.3210641
175	0xbee112de	-0.43959707
176	0xbf70f3cf	-0.9412202
177	0x3e43cb38	0.1912049
178	0x3dfbc57b	0.12293526
179	0xbe7195a5	-0.23592241
180	0xbd19ed8b	-0.037580054
181	0xbf233f09	-0.6376806
182	0xbe256b07	-0.16154109
183	0x3ec96e50	0.39341974
184	0x3e9cc276	0.30617112
185	0x3ebcf825	0.3690807
186	0xbe59eb9b	-0.21281283
187	0x3e91f1a7	0.2850468
188	0xbc3fee0f	-0.011714472
189	0x3f17cfd7	0.59301513
190	0x3d93a4cf	0.07209169
191	0xbf2ea830	-0.68225384
192	0x3d4e922f	0.05043238
193	0x3dcc8d9d	0.09987948
194	0xbe833aa6	-0.25630683
195	0x3e079cfb	0.13243477
196	0xbe5ed410	-0.21760583
197	0xbf5c5f94	-0.8608334
198	0x3dccf84e	0.10008298
199	0x3f09cb6b	0.53826016
200	0xbe9d0666	-0.30668944
201	0x3cdcfc7e	0.026975866
202	0x3f933ea6	1.1503494
203	0x3e7bc95e	0.24588534
204	0xbea779b5	-0.32710043
205	0xbec0def8	-0.37670112
206	0xbf7b6ae4	-0.9820998
207	0xbdc6f4b4	-0.09714642
208	0x3e2d2a7a	0.16910735
209	0xbe0585b5	-0.13039286
210	0x3f1dc688	0.6163106
211	0xbdaf594f	-0.08561956
212	0xbd7a7a09	-0.061151538
213	0xbca07e4f	-0.019591479
214	0x3d70e632	0.05881328
215	0xbf724d3c	-0.946491
216	0xbdb24063	-0.08703687
217	0xbd98079a	-0.07423325
218	0xbe6e47d8	-0.23269594
219	0xbe1ab07b	-0.15106384
220	0x3e9cc759	0.3062084
221	0x3e765f35	0.24059756
222	0x3e14607a	0.14489928
223	0xbee457ec	-0.4459833
224	0xbf35ae63	-0.7096922
225	0x3e8ef315	0.27919832
226	0xbe5efeee	-0.21776935
227	0x3e66fdee	0.22557804
228	0x3e15ee49	0.1464168
229	0xbec8e24a	-0.39235145
230	0xbea3930f	-0.31948134
231	0x3e92aea2	0.2864886
232	0x3dc05dc6	0.09392886
233	0x3eebfde5	0.46092144
234	0xbd1edecb	-0.03878669
235	0xbc23fe59	-0.010009372
236	0xbe9323d8	-0.28738284
237	0xbbefb7b7	-0.0073156017
238	0xbd0263ed	-0.031833578
239	0x3f0297b5	0.51012737
240	0x3f7fda70	0.99942684
241	0x3e115db4	0.14195901
242	0x3eacdd81	0.33762744
243	0xbf9148aa	-1.13503
244	0xbf787828	-0.97058344
245	0xbd99b226	-0.07504682
246	0xbf243ae2	-0.6415235
247	0xbd66191a	-0.056176282
248	0x3ec28675	0.37993208
249	0x3e593b2d	0.2121398
250	0x3c0cd4b3	0.008595633
251	0xbe923e9f	-0.285634
252	0xbe09256c	-0.13393182
253	0xbe0645bf	-0.13112544
254	0x3ea2d82c	0.3180555
255	0xbe78c89f	-0.24295281

master1 f4 [1, 1, 24]
0	0x3d5456e6	0.051840685
1	0xbf73316d	-0.9499729
2	0x3fb6dbe5	1.4285856
3	0x3dc9e4bf	0.09858083
4	0x3f5bf944	0.85927224
5	0xbe1f7c28	-0.15574706
6	0xbf4c5671	-0.798194
7	0xbe000111	-0.12500407
8	0xbf09471e	-0.5362414
9	0xbe0effa5	-0.13964708
10	0x3e37b0e5	0.17938574
11	0x3f586d09	0.84541374
12	0x3ced1b74	0.028943755
13	0x3f0d46f1	0.55186373
14	0x3f98a433	1.192511
15	0x3f318fe8	0.6936021
16	0x3eaecf92	0.3414274
17	0x3fc4b4ff	1.5367736
18	0x3e3dddf2	0.18541697
19	0x3f301bd0	0.6879244
20	0x3f2b988a	0.6702963
21	0x3e0be88e	0.13662931
22	0x3e0694b1	0.13142659
23	0xbf33af71	-0.7018958

master2 f4 [1, 1, 24]
0	0x3ebc4235	0.36769262
1	0xbeec94e7	-0.46207353
2	0x3cd5a52c	0.026079737
3	0x3fc39ff6	1.5283191
4	0x3f2caf49	0.67454964
5	0xc01de546	-2.4671187
6	0x38b3a856	8.56674e-05
7	0xbfb6408f	-1.4238452
8	0xbe2da8fd	-0.16958995
9	0x3f29d23e	0.6633643
10	0x40012fa4	2.0185328
11	0xbfae681c	-1.3625522
12	0xbebab2fa	-0.36464673
13	0x3ea6fd81	0.32615283
14	0xbf01a2ba	-0.50638926
15	0xbf6f9628	-0.93588495
16	0x3e99e0ae	0.3005423
17	0xbf34d757	-0.7064108
18	0xbe04ff80	-0.1298809
19	0x3c45a094	0.012062211
20	0x3d997ef2	0.07494916
21	0xbf3ab348	-0.7292981
22	0xbdd34fa2	-0.10317923
23	0x3fb1ce3c	1.3891063

encoder.0.conv1.weight f4 [32, 1, 2, 3]
0	0xbe897610	-0.26847887
1	0x3e2ab99b	0.16672365
2	0x3e81a7f6	0.25323457
3	0xbe8b84a7	-0.27249643
4	0x3ec0471a	0.37554246
5	0xbe8f7b15	-0.28023592
6	0x3eb212de	0.3478002
7	0xbeca8e90	-0.39561892
8	0xbeae47b6	-0.34039086
9	0x3ebfca9c	0.37459266
10	0x3cebe6d4	0.02879659
11	0xbc9561e0	-0.018235147
12	0x3daeb811	0.08531202
13	0x3dcb81e4	0.09936884
14	0xbd3657c5	-0.044517297
15	0x3d81e452	0.06342377
16	0xbe72c8b7	-0.23709379
17	0xbd7c1d4f	-0.06155139
18	0x3eb5319a	0.35389405
19	0x3df0cde0	0.117580175
20	0x3d1518ce	0.03640061
21	0x3e62f36e	0.22163174
22	0xbe28951d	-0.16463132
23	0xbd626f90	-0.055282176
24	0xbdd4c1be	-0.10388516
25	0x3e83595d	0.25654116
26	0x3cd800a3	0.026367491
27	0x3cb93921	0.022610249
28	0x3e36cf92	0.1785262
29	0xbea6212f	-0.32447192
30	0x3e5eebf7	0.21769701
31	0xbe836fc6	-0.25671214
32	0x3eb55996	0.3541991
33	0xbc955cf6	-0.018232804
34	0xbd4cba6e	-0.04998248
35	0xbe490f52	-0.1963475
36	0x3e5cc2f8	0.2155875
37	0x3e56746d	0.2094285
38	0xbec43091	-0.38318303
39	0xbe916eb7	-0.2840478
40	0x3ea0c6eb	0.31401762
41	0xbe38913e	-0.18024155
42	0xbaaa0e6a	-0.0012974266
43	0xbe004639	-0.12526788
44	0x3e326c8f	0.17424224
45	0xbe909501	-0.2823868
46	0xbe9fa163	-0.31177816
47	0x3e79eccf	0.24406742
48	0x3ebbe464	0.36697686
49	0xbdcdfb9d	-0.10057757
50	0x3b800603	0.0039069667
51	0x3d8e786d	0.06956563
52	0x3eb545a2	0.35404688
53	0xbe9cb912	-0.30609947
54	0xbe831709	-0.25603512
55	0x3e3197bd	0.1734304
56	0xbd8dd76a	-0.069258526
57	0xbeb52c4c	-0.35385358
58	0xbdda08d1	-0.10646213
59	0xbce0f4e9	-0.027460532
60	0x3ead0430	0.33792257
61	0xbd3d8f9f	-0.046279546
62	0xbd7edec9	-0.062224183
63	0x3d88f413	0.066871785
64	0x3dc762e4	0.09735659
65	0x3e0f5282	0.13996318
66	0xbe9dbc0f	-0.3080754
67	0x3e2acd45	0.16679867
68	0x3ed00030	0.40625143
69	0xbec037b3	-0.37542495
70	0x3d581740	0.052756548
71	0xbe3f0de5	-0.18657644
72	0xbe8fce93	-0.2808729
73	0xbc7b020b	-0.015320311
74	0xbdd60380	-0.10449886
75	0xbea3676d	-0.31914845
76	0xbe1da6b7	-0.15395628
77	0xbe1d2bfd	-0.15348811
78	0xbd8b079a	-0.06788559
79	0x3da72297	0.08160894
80	0x3ed0f97e	0.40815347
81	0xbec286aa	-0.37993366
82	0xbe1d44db	-0.15358298
83	0x3e49e809	0.1971742
84	0xbe835460	-0.2565031
85	0x3e420fc2	0.18951324
86	0xbe8c5ef0	-0.27416182
87	0x3e13b69d	0.1442513
88	0xbe783c9f	-0.24241875
89	0x3ea93ebb	0.33055672
90	0xbe85836c	-0.2607683
91	0x3d36270f	0.044470843
92	0x3e580ec4	0.21099383
93	0x3d942f3c	0.07235572
94	0xbdad4d01	-0.08461953
95	0xbe04a921	-0.12955143
96	0xbe1abd0c	-0.15111178
97	0xbcc738cf	-0.02431908
98	0x3e27176f	0.16317533
99	0x3e780c74	0.242235
100	0x3cc8a270	0.024491519
101	0xbe7af2c1	-0.24506666
102	0xbe897646	-0.26848048
103	0xbe9a5d80	-0.3014946
104	0x3e1aa0ca	0.15100399
105	0xbc293cb1	-0.010329411
106	0x3e888b8d	0.2666897
107	0xbea7d431	-0.32779077
108	0x3cbf1f3a	0.02333032
109	0xbe41c395	-0.18922265
110	0x3eb9d47e	0.3629493
111	0xbebd47f1	-0.3696895
112	0x3d2214ed	0.039570738
113	0xbe3b14a7	-0.18269597
114	0x3eaad8cf	0.33368537
115	0xbd808991	-0.06276239
116	0xbea80dfd	-0.32823172
117	0xbe7a8670	-0.24465346
118	0xbe8c8cf4	-0.2745129
119	0x3e8dc8e0	0.27692318
120	0x3e407131	0.18793179
121	0xbc5d0475	-0.013489832
122	0x3e45dc27	0.19322263
123	0xbe5f8cf5	-0.21831115
124	0x3dfe612e	0.12420879
125	0x3e9eded0	0.31029367
126	0x3e17beea	0.14818922
127	0xbc214d3c	-0.009845074
128	0x3cfd4c97	0.03092031
129	0xbe08cb8c	-0.13358897
130	0x3e030b49	0.12797274
131	0x3e4ea55b	0.20180266
132	0x3e11e08e	0.14245817
133	0xbe9a7e51	-0.30174497
134	0xbe935e98	-0.28783107
135	0xbe45d74c	-0.1932041
136	0x3eb3221b	0.34986958
137	0xbe8d534f	-0.27602622
138	0xbd94d434	-0.07267037
139	0x3e28b633	0.16475753
140	0xbc14b98e	-0.009077443
141	0x3e37b554	0.17940265
142	0xbd356d4e	-0.044293694
143	0xbe4e6d22	-0.20158818
144	0x3e8a69db	0.27033886
145	0xbdc39b52	-0.095511094
146	0xbebcd6e7	-0.36882707
147	0x3c6e8283	0.014557484
148	0xbe269174	-0.16266423
149	0x3bbd920c	0.0057852324
150	0xbde5970c	-0.112104505
151	0xbe277e5c	-0.16356796
152	0xbe3dcb74	-0.18534642
153	0xbd56f3da	-0.05247865
154	0xbe94afcf	-0.2904038
155	0x3e3d3d94	0.18480521
156	0xbe8302df	-0.25588128
157	0xbdd3cfcf	-0.10342371
158	0x3e489cb7	0.19591032
159	0xbe8e530e	-0.2779774
160	0xbe4cfc62	-0.20018151
161	0xbe22a6c1	-0.15883924
162	0x3be1d4a2	0.006891803
163	0x3e54dc51	0.20787169
164	0x3eb53574	0.35392344
165	0x3e0874dc	0.13325828
166	0x3e78f541	0.24312307
167	0xbe0a19a2	-0.1348634
168	0xbcf15aec	-0.0294623
169	0x3ea01bb6	0.31271142
170	0x3e0334e0	0.12813139
171	0x3ebeb050	0.3724389
172	0xbcb14ced	-0.021643126
173	0xbdc3f474	-0.0956811
174	0x3ddb6c71	0.10714043
175	0x3ea1371c	0.31487358
176	0x3e7bdef0	0.24596763
177	0x3e96c428	0.2944653
178	0x3de60b87	0.112326674
179	0xbe5c8397	-0.21534573
180	0x3ea18c31	0.3155227
181	0x3ea1fd08	0.3163836
182	0x3e5d01a5	0.21582659
183	0x3e963141	0.29334453
184	0xbd8d988f	-0.06913864
185	0xbcaca055	-0.021072546
186	0xbeb683bd	-0.35647383
187	0xbe5d2aa0	-0.21598291
188	0xbeaa5294	-0.33266127
189	0x3e967ee0	0.29393673
190	0x3e112170	0.14172912
191	0x3e6b5e4b	0.22985189

encoder.0.conv1.bias f4 [32]
0	0x38a989d4	8.0842205e-05
1	0x3916afa3	0.00014370545
2	0x39e6be1f	0.0004401067
3	0x3a07596d	0.0005163167
4	0xb9db4ffd	-0.0004183053
5	0xba035214	-0.0005009484
6	0x382923fe	4.032626e-05
7	0xb8da5b75	-0.00010412085
8	0xb8a295a6	-7.752636e-05
9	0xb820aa8e	-3.8305814e-05
10	0xb93dc4b3	-0.00018097721
11	0x39eb4386	0.00044873002
12	0xb710d47d	-8.632543e-06
13	0xb9135bd0	-0.00014053215
14	0xb923f312	-0.00015635442
15	0x39a7d15c	0.00032008707
16	0xb928c49b	-0.0001609497
17	0x3965e759	0.00021925326
18	0x394581ab	0.00018835689
19	0xb9954320	-0.00028469507
20	0x3938a621	0.00017609495
21	0x38a6ff34	7.963032e-05
22	0x395577c5	0.0002035788
23	0x39f4f246	0.00046719814
24	0x3a1b1b5b	0.0005916857
25	0xb89ca57c	-7.4694835e-05
26	0x38c1729a	9.224303e-05
27	0xb9ccbdf2	-0.00039051432
28	0x37e79843	2.7608248e-05
29	0xb94c006c	-0.00019455113
30	0x39c0580d	0.00036686697
31	0xb925dbf8	-0.00015817571

encoder.0.bn1.weight f4 [32]
0	0x3f81d81e	1.0144079
1	0x3f808769	1.0041324
2	0x3f827ee4	1.0194974
3	0x3f72edd4	0.94894147
4	0x3f6fbf05	0.9365085
5	0x3f757a66	0.9588989
6	0x3f7a81bc	0.9785421
7	0x3f7cb6c6	0.9871639
8	0x3f700d8f	0.9377069
9	0x3f75f413	0.9607555
10	0x3f74de5c	0.95651793
11	0x3f77bb7c	0.96770453
12	0x3f70563d	0.9388159
13	0x3f7e6455	0.99371845
14	0x3f7d7fa4	0.9902289
15	0x3f7d016f	0.9883031
16	0x3f7a081a	0.9766861
17	0x3f71f5fd	0.94515973
18	0x3f7cd7f4	0.9876702
19	0x3f70a1b6	0.9399675
20	0x3f73dd5a	0.9525963
21	0x3f69d89a	0.9134613
22	0x3f6c79c7	0.9237332
23	0x3f7e9194	0.99440885
24	0x3f7465ca	0.9546782
25	0x3f7b6f58	0.9821677
26	0x3f78f225	0.97244483
27	0x3f6bed8c	0.9215934
28	0x3f680b65	0.90642387
29	0x3f6c1748	0.92223024
30	0x3f66aac9	0.9010435
31	0x3f7c97f9	0.9866939

encoder.0.bn1.bias f4 [32]
0	0xbdb1e41a	-0.08686085
1	0xbc86790f	-0.016415147
2	0xbd68e01e	-0.05685436
3	0x3c203c63	0.009780022
4	0x3deba9dd	0.11507008
5	0x3d61b220	0.055101514
6	0xbd8db73d	-0.069197156
7	0xbc9c035b	-0.019044569
8	0x3d641503	0.0556841
9	0xbd28997e	-0.041162007
10	0xbe0a42f6	-0.13502106
11	0xbd8075d0	-0.06272471
12	0xbc2d67f2	-0.0105838645
13	0x3c5f17ea	0.013616541
14	0xbd7cb0fd	-0.061692227
15	0xbccb2d0c	-0.024801753
16	0xbb49839d	-0.0030748614
17	0xbd61ea04	-0.055154815
18	0xbd1eeb40	-0.03879857
19	0xbca51f02	-0.020156387
20	0xbe3dd9fd	-0.18540187
21	0xbcd10484	-0.025514849
22	0x3ca681ae	0.020325508
23	0x3d17b0e3	0.037033927
24	0xbd8b1a32	-0.06792106
25	0xbcce6402	-0.025194172
26	0x3ca70722	0.020389143
27	0x3e82113d	0.25403777
28	0x3dc4275f	0.09577822
29	0x3e2bc755	0.16775258
30	0x3defd346	0.11710219
31	0xbd518f64	-0.05116214

encoder.0.bn1.running_mean f4 [32]
0	0xbba0e91d	-0.004910602
1	0xba0a2650	-0.0005269991
2	0xbc92828b	-0.017884513
3	0x3dcb028e	0.09912597
4	0x3c29663e	0.010339318
5	0x3c18296c	0.0092872195
6	0xbcab41e7	-0.020905448
7	0xbd6fe7ad	-0.058570553
8	0x3d996cce	0.07491456
9	0xbdfd753d	-0.12375877
10	0x3dd2dfc2	0.10296585
11	0xbd3f5ad7	-0.04671749
12	0xbe4b6d67	-0.19865952
13	0x3c865cd7	0.016401691
14	0xbcadb7e1	-0.021205844
15	0xbce59622	-0.02802569
16	0x3ae1b77a	0.0017220818
17	0xbdc1bf98	-0.09460372
18	0xbd79379b	-0.060844045
19	0xbd6e9f50	-0.0582574
20	0x3de78d00	0.113061905
21	0x3d90ea1a	0.07075901
22	0xbddfc1ba	-0.10925622
23	0x3b70ca8b	0.0036741819
24	0xbd83f0dd	-0.064424254
25	0xbdf53e4f	-0.11974775
26	0xbe1e60f6	-0.15466675
27	0x3e1ff976	0.15622506
28	0x3e04088a	0.12893882
29	0x3e2a0296	0.16602549
30	0x3e50a133	0.20373993
31	0xbd3e9e9d	-0.046537984

encoder.0.bn1.running_var f4 [32]
0	0x3cd0cb04	0.02548743
1	0x3da23b63	0.07921483
2	0x3c9cb2c5	0.019128213
3	0x3e4eafe9	0.20184292
4	0x3c863b2e	0.016385641
5	0x3cf32f33	0.029685592
6	0x3ce09a2e	0.027417269
7	0x3dbbdf5e	0.09173463
8	0x3df6f74b	0.12058886
9	0x3e942bb7	0.28939602
10	0x3e4839c8	0.19553292
11	0x3ddd04d2	0.10791935
12	0x3f36a1d5	0.71340686
13	0x3d9c18ff	0.07621955
14	0x3d0f6a8d	0.035013724
15	0x3cac62d8	0.021043226
16	0x3bb1db6d	0.005427769
17	0x3e348e16	0.17632326
18	0x3de59873	0.11210718
19	0x3d9bd776	0.07609455
20	0x3e7596c3	0.23983292
21	0x3dbdd505	0.09269146
22	0x3e6f1845	0.23349102
23	0x3bd76cea	0.006574263
24	0x3dbbc87e	0.091691
25	0x3e8a43e4	0.2700492
26	0x3ee9c8e2	0.45661074
27	0x3ee8e9d5	0.454909
28	0x3e9d55a8	0.30729413
29	0x3f0597fa	0.5218502
30	0x3f469035	0.7756379
31	0x3e5ced8c	0.21574992

encoder.0.conv2.weight f4 [32, 32, 2, 3]
0	0x3ca93dd8	0.020659372
1	0xbd4a7d5a	-0.04943595
2	0xbb86fadd	-0.0041192607
3	0xbaa25cd3	-0.0012387283
4	0x3dd07b9e	0.10179828
5	0x3ccedb77	0.025251133
6	0xbd0740c3	-0.033020746
7	0xbbad1a76	-0.0052826954
8	0x3d8abe66	0.06774597
9	0x3b65998c	0.0035034148
10	0xbdd53ec9	-0.10412366
11	0x3cf4c101	0.029877188
12	0xbd6b343e	-0.05742287
13	0x3d3b1d4c	0.045682237
14	0x3d0861a6	0.03329625
15	0xbd476da2	-0.04868854
16	0xbbabdd3d	-0.0052448795
17	0xbcacc7f8	-0.021091446
18	0xbd9568e7	-0.07295399
19	0xbd8db14d	-0.06918583
20	0xbd5fcdd6	-0.05463966
21	0xbd3ec7a0	-0.046577096
22	0xbd369e25	-0.044584412
23	0xbc191624	-0.009343658
24	0xbd29edef	-0.041486677
25	0xbd622690	-0.055212557
26	0x3ca26c69	0.019827085
27	0xbce1ae37	-0.027548892
28	0xbd5afecb	-0.053465646
29	0xbd1058af	-0.035240825
30	0x3d333562	0.04375208
31	0xbda62ada	-0.08113642
32	0x3d17c16f	0.037049707
33	0x3d7b171a	0.06130133
34	0x3d4712c6	0.048601888
35	0xbd14d106	-0.036332153
36	0xbcfb6cb9	-0.030691491
37	0xbd06b5ff	-0.03288841
38	0x3d2ffed6	0.04296764
39	0x3cb16bb8	0.02165781
40	0x3d42ee01	0.04759026
41	0x3d02210c	0.031769797
42	0x3daae909	0.08345229
43	0xbd417e8f	-0.047239836
44	0xbd426a47	-0.047464635
45	0x3d85e616	0.06538026
46	0x3d830013	0.063964985
47	0xbba9cb83	-0.005181731
48	0xbc0db6a5	-0.008649503
49	0xbd29350f	-0.041310366
50	0x3d6fbbd5	0.05852874
51	0xbcb07ce0	-0.02154392
52	0xbd99489b	-0.074845515
53	0x3d67be51	0.056577984
54	0xbbd23927	-0.0064155045
55	0xbd52831f	-0.051394578
56	0x3cb72f4d	0.022361422
57	0x3cd92f2c	0.026511751
58	0x3d7ba737	0.061438765
59	0xbcf4a8d8	-0.029865667
60	0xbce40452	-0.027834091
61	0xbcac3678	-0.021022066
62	0x3b985880	0.004649222
63	0x3c140890	0.009035245
64	0xbd12554b	-0.035725873
65	0xbd31eefd	-0.043440808
66	0x3c850147	0.01623596
67	0x3d5ad6e7	0.053427603
68	0xbccedd89	-0.02525212
69	0xbd01b8d7	-0.031670418
70	0x3d465c31	0.048427764
71	0x3ced07f6	0.02893446
72	0xbb8b98b8	-0.004260149
73	0x3acec51b	0.0015775295
74	0xbd438e8d	-0.04774337
75	0x3ce3e8a0	0.027820885
76	0xbd616731	-0.05503005
77	0xbd7abf0f	-0.061217364
78	0x3d19151e	0.037373655
79	0xbccc8171	-0.024964066
80	0x3d5c8758	0.05384001
81	0x3d42d6f0	0.04756826
82	0xbc3bc758	-0.0114611015
83	0xbd1f3f00	-0.03887844
84	0xbcb03721	-0.021510663
85	0xbd31ce2a	-0.043409504
86	0x3d16741a	0.036731817
87	0x3bd67675	0.006544883
88	0x3d09f458	0.03368029
89	0xbcb461da	-0.022019316
90	0x3c8eb277	0.017419083
91	0x3b8b8e10	0.0042588785
92	0x3b2eccfc	0.0026672473
93	0xbd08b947	-0.03337982
94	0xbd2d2a44	-0.042276636
95	0x3cfc173c	0.030772798
96	0xbcca06e2	-0.024661485
97	0x3c12039d	0.008911994
98	0xbd01be24	-0.031675473
99	0x3d89e335	0.067327894
100	0xbdc213ad	-0.09476409
101	0xbb71f76b	-0.0036921154
102	0x3cc010ab	0.023445448
103	0xbd7420c4	-0.05960156
104	0x3d850ef2	0.06496991
105	0x3d2e84cc	0.042607114
106	0xbcb6c1ef	-0.022309272
107	0x3bb49c35	0.0055117854
108	0xbd4c263a	-0.049841143
109	0x3cac4826	0.021030497
110	0xbd173563	-0.036916148
111	0x3d4db4e3	0.050221335
112	0xbcfe27f9	-0.03102492
113	0xbd241047	-0.040054586
114	0x3d658bfa	0.056041695
115	0x3cc36368	0.023851112
116	0xbd2f141c	-0.042743787
117	0xbd7d291d	-0.061806787
118	0xbd839d63	-0.064265035
119	0x3d0ca310	0.034335196
120	0xbcb4178d	-0.021983886
121	0x3d1ab6ea	0.037772097
122	0xbd8689f2	-0.0656928
123	0x3d71fb5d	0.05907761
124	0xbd03690e	-0.03208261
125	0xbd2b6017	-0.041839685
126	0x3d5838b5	0.052788455
127	0x3d8d4280	0.068974495
128	0xbd04259d	-0.032262433
129	0x392efb47	0.00016687541
130	0xbd021428	-0.031757504
131	0x3d5bd967	0.053674128
132	0x3b833083	0.004003586
133	0xbc53c527	-0.012925423
134	0x3d364946	0.044503473
135	0xbd401fab	-0.0469052
136	0xbd916c30	-0.07100713
137	0xbd9c7730	-0.07639921
138	0x3bf0d1f2	0.007349246
139	0xbda1618b	-0.07879933
140	0xbd3b114a	-0.045670785
141	0xbd64ba71	-0.055841867
142	0xbcffc4da	-0.031221796
143	0x3d58677b	0.05283306
144	0x3d2daa82	0.042398937
145	0x3d3d678b	0.046241324
146	0xbcfbdf5c	-0.030746154
147	0x3d394651	0.045233075
148	0xbd92a52d	-0.07160411
149	0xbd67fcdd	-0.056637634
150	0xbc3a9c9f	-0.01138988
151	0xbc321861	-0.01087007
152	0xbd35c4e8	-0.044377238
153	0xbbe407eb	-0.0069589517
154	0xbd59a820	-0.053138852
155	0xbca4da84	-0.020123728
156	0xbd0b1ac4	-0.033961073
157	0xbd42d5c3	-0.04756714
158	0xbd2f23ad	-0.042758632
159	0xbcbba114	-0.022903956
160	0xbd7cb73d	-0.061698187
161	0xbd499c00	-0.04922104
162	0xbc8f788f	-0.017513542
163	0xbc905344	-0.01761783
164	0xbd930623	-0.07178905
165	0xbcfdc448	-0.030977383
166	0xbd5e0c33	-0.054210853
167	0x3d453374	0.048144773
168	0x3b9f692f	0.004864834
169	0xbd758f76	-0.059951268
170	0xbd909904	-0.070604354
171	0xbca69123	-0.020332878
172	0x3c4aad3d	0.012370405
173	0xbad014a6	-0.0015875294
174	0xbcea80f7	-0.028625948
175	0x3cb3a113	0.021927392
176	0xbcc476f6	-0.023982506
177	0xbd8bc81c	-0.06825277
178	0xbc94ce47	-0.018164767
179	0xbd6dc157	-0.05804571
180	0xbd4857b4	-0.048911765
181	0x3d0a67c8	0.03379038
182	0xbd18adc1	-0.03727508
183	0xbd365b7a	-0.044520833
184	0x3d71f98c	0.059075877
185	0x3cb12971	0.021626206
186	0x3d0d9ed1	0.034575287
187	0xbd391a3d	-0.04519104
188	0xbd524307	-0.051333454
189	0xbabf58dd	-0.0014598627
190	0xbacaf9d6	-0.0015485834
191	0xbbd1ef6c	-0.006406715
192	0x3dae6f59	0.08517332
193	0x3ceca883	0.028888946
194	0x3d07cfd0	0.03315717
195	0x3da86d69	0.08223993
196	0x3d271c94	0.04079874
197	0x3d630b51	0.055430714
198	0xba877bdf	-0.0010336599
199	0xbd4f3bb7	-0.050594058
200	0x3cb3d435	0.021951774
201	0xbbb72f08	-0.0055903234
202	0x3d0d9f5d	0.03457581
203	0x3d6f239a	0.05838356
204	0x3d6e3c80	0.058163166
205	0xbaec7103	-0.0018039051
206	0x3d83b96e	0.06431852
207	0xbd32ec33	-0.04368229
208	0x3d7a3fcd	0.061096
209	0xbce29a11	-0.027661355
210	0xbd3763e5	-0.044773
211	0xbb82e9b9	-0.003995147
212	0xbcc1b245	-0.023644576
213	0x3d0c067f	0.034185883
214	0xbd640edb	-0.05567823
215	0xbc470316	-0.012146732
216	0xbcc75490	-0.024332315
217	0x3d9aca22	0.07558085
218	0x3c6bd475	0.014393915
219	0xbb310960	-0.0027013645
220	0x3d1af053	0.037826847
221	0xbcd3c1ae	-0.02584919
222	0xbc20b578	-0.0098088905
223	0xbd13f25b	-0.0361198
224	0x3d8373ec	0.06418595
225	0x3d87bcaa	0.06627782
226	0xbd09d92f	-0.033654388
227	0x3c9baca5	0.019003222
228	0x3c6a3f62	0.014297338
229	0xbd503655	-0.050833065
230	0xbb03b2ae	-0.0020095515
231	0xbcd6f76b	-0.026241025
232	0xbdbb7ad3	-0.09154286
233	0x3d685cf3	0.05672927
234	0xbbb96b40	-0.005658537
235	0xbd1c3d4f	-0.038144406
236	0x3c0e72a3	0.008694324
237	0x3dc2d431	0.095131285
238	0xbc55f114	-0.013057966
239	0x3d28f7c8	0.041251928
240	0x3a81dac7	0.000990712
241	0xbca824ec	-0.020525418
242	0xbd3c06ca	-0.045904912
243	0xbd8ac3fc	-0.06775662
244	0x3d63a708	0.055579215
245	0x3d1fe819	0.039039705
246	0x3d25ee27	0.040510323
247	0x3cdda989	0.02705838
248	0x3b84d99e	0.0040542623
249	0x3d236ab6	0.03989669
250	0x3d8baf07	0.06820493
251	0xbd7ba6ee	-0.061438493
252	0xbbd96710	-0.0066346005
253	0x3b7f7a61	0.0038982856
254	0xbcf85cbd	-0.030317659
255	0x3c061d44	0.008185688

encoder.0.conv2.bias f4 [32]
0	0x3cad8600	0.02118206
1	0xbd80d889	-0.06291301
2	0x3d11ceec	0.035597727
3	0xbdd28a7c	-0.1028032
4	0xbd48b46e	-0.049000196
5	0xbd9c0f8a	-0.07620151
6	0xbcd21fb6	-0.025649887
7	0x3d87c696	0.06629674
8	0xbc8bbe4e	-0.017058518
9	0xbd22e615	-0.039770205
10	0xbcb5d74e	-0.022197392
11	0x3cd03987	0.025418056
12	0xbc75c14a	-0.014999697
13	0xbdd0842f	-0.10181462
14	0x3cf5d8a7	0.030010534
15	0xbda501a0	-0.080569506
16	0xbdbf5fca	-0.09344442
17	0xbd938734	-0.07203522
18	0x3cd03fc3	0.025421029
19	0xbcdeade1	-0.027182521
20	0x3d0e5752	0.034751244
21	0x3d1cadab	0.03825156
22	0x3d259ea4	0.040434495
23	0x3c804eed	0.015662635
24	0xbd2db5cc	-0.042409703
25	0xbc22a92b	-0.009928028
26	0xbd742935	-0.05960961
27	0x3d1257a3	0.03572811
28	0xbd952ba8	-0.072837174
29	0xbd905fed	-0.070495464
30	0x3d40b3b7	0.04704639
31	0x3dd8c216	0.10583894

encoder.0.downsample.weight f4 [32, 1, 1, 3]
0	0x3d3e937d	0.046527375
1	0x3d8c426e	0.06848608
2	0xbe213c03	-0.15745549
3	0x3ef37821	0.4755259
4	0xbec6086b	-0.38678297
5	0x3ecff0f7	0.4061353
6	0x3e14fe57	0.14550148
7	0xbf0f5a21	-0.559969
8	0x3ed05b98	0.4069488
9	0xbf058827	-0.52160877
10	0xbf05da1f	-0.5228595
11	0xbe540dba	-0.20708361
12	0xbe010c17	-0.12602268
13	0xbf06e178	-0.5268779
14	0x3e426282	0.1898289
15	0xbedb1788	-0.4279139
16	0x3ec9d3e8	0.39419484
17	0x3e13e3e8	0.14442408
18	0x3ee57535	0.44815984
19	0x3f08f1e8	0.5349412
20	0x3eda2fc2	0.4261456
21	0x3f085cd7	0.5326666
22	0x3e886acb	0.26643977
23	0x3f106fc0	0.56420517
24	0xbe1143d8	-0.14186037
25	0xbe9f4f5f	-0.31115243
26	0xbec4688a	-0.38361007
27	0xbf08439b	-0.5322816
28	0x3efac165	0.48975673
29	0x3e0a6a5f	0.1351714
30	0x3eeb061e	0.45903105
31	0x3ee8ab0c	0.45442998
32	0xbe35e109	-0.17761625
33	0xbec58eef	-0.38585612
34	0x3da49443	0.08036091
35	0xbdb6bfff	-0.08923339
36	0x3e08428e	0.13306639
37	0x3eb0ba7e	0.34517282
38	0x3ecf13cc	0.4044479
39	0xbf096fc6	-0.5368618
40	0xbeadec29	-0.33969238
41	0xbe675063	-0.22589259
42	0x3e6f862e	0.23391029
43	0x3e26f49e	0.16304252
44	0xbe947d3a	-0.2900179
45	0x3def17b8	0.11674446
46	0x3eb75218	0.3580482
47	0x3bacd4b6	0.0052743806
48	0xbeb2b7df	-0.34905908
49	0x3ef2bbc7	0.47408888
50	0xbf0b172e	-0.54332244
51	0x3db9d452	0.090737
52	0xbeb176df	-0.34661004
53	0x3d231209	0.03981212
54	0xbeba7e9a	-0.36424714
55	0xbddd8c59	-0.10817785
56	0xbd97f106	-0.074190184
57	0x3f0a1680	0.5394058
58	0xbd144ded	-0.03620713
59	0x3df3173c	0.11869666
60	0x3ee98cd7	0.45615265
61	0x3cf9b2ff	0.03048086
62	0xbd4350f4	-0.047684625
63	0xbe1dcfc4	-0.15411288
64	0x3e8516a6	0.25993842
65	0x3f0a857f	0.5410995
66	0x3e91e08d	0.2849163
67	0xbe3c9c7b	-0.18419068
68	0x3e16e4a5	0.14735658
69	0xbec6780d	-0.38763466
70	0x3e0b07d6	0.13577208
71	0xbec672ba	-0.38759404
72	0xbe13db52	-0.14439133
73	0x3e8ef2f6	0.2791974
74	0x3ed3914d	0.41321793
75	0x3e996b09	0.29964474
76	0x3efa6195	0.48902574
77	0x3ec53166	0.3851425
78	0x3c4c9cda	0.012488568
79	0x3e994f7b	0.2994345
80	0xbeb75f90	-0.35815096
81	0xbe599a6a	-0.2125031
82	0x3e5c3e9e	0.21508262
83	0x3eb98c48	0.3623984
84	0xbe7a85be	-0.24465081
85	0x3e0364f3	0.12831478
86	0x3f0450e9	0.5168596
87	0x3daea505	0.08527569
88	0xbf0b2366	-0.5435089
89	0xbf0cf849	-0.55066353
90	0xbebb26d9	-0.36553076
91	0x3ea770a8	0.32703137
92	0x3ec35e14	0.38157713
93	0x3db76bf4	0.08956137
94	0x3e55bcc7	0.20872794
95	0x3e98a54e	0.29813617

encoder.0.downsample.bias f4 [32]
0	0x3ec30a9d	0.38094035
1	0xbe27a364	-0.16370922
2	0xbf00c1b0	-0.50295544
3	0x3e1db6fa	0.15401831
4	0xbf036ca4	-0.5133765
5	0x3e186cb4	0.14885217
6	0xbb90a440	-0.0044141114
7	0x3d9f4f1e	0.07778762
8	0x3ecd7914	0.40131438
9	0xbef9b9d5	-0.4877459
10	0x3e3a8b0f	0.18217109
11	0x3eb1baee	0.3471293
12	0x3e0a7b9a	0.13523713
13	0x3da9f939	0.082994886
14	0x3e01ae4c	0.12664145
15	0xbedd85d2	-0.4326616
16	0xbebd58e0	-0.3698187
17	0xbe90767e	-0.28215402
18	0x3e1d60ed	0.15369006
19	0xbe763122	-0.2404218
20	0xbe5ef866	-0.21774444
21	0x3ebf9d7e	0.37424845
22	0xbd868383	-0.065680526
23	0xbe62355d	-0.22090669
24	0xbeec7f1c	-0.46190727
25	0x3f060de8	0.5236497
26	0xbe0a1e58	-0.13488138
27	0xbebbfb1f	-0.36715028
28	0xbe85759d	-0.26066294
29	0xbef79453	-0.4835535
30	0x3e9e8d03	0.30966958
31	0x3e9a364f	0.3011956

encoder.1.conv1.weight f4 [32, 32, 2, 3]
0	0x3da29c8e	0.07940017
1	0xbb874b50	-0.004128851
2	0xbcfd4399	-0.030916022
3	0xbac3226e	-0.001488758
4	0x3d89aeda	0.067228034
5	0x3d1fd77e	0.03902387
6	0x3b2f6c4a	0.0026767426
7	0xbd82fc34	-0.0639576
8	0xbd520980	-0.05127859
9	0xbd24faa4	-0.040278092
10	0xbd30c5e0	-0.04315746
11	0x3c207401	0.0097932825
12	0xbd4425cc	-0.04788761
13	0x3bcde4a9	0.006283362
14	0x3b8c24f0	0.004276864
15	0xbc90b403	-0.017663961
16	0xbc90a1af	-0.017655222
17	0x3d1d1f44	0.038359895
18	0xb9c5bed7	-0.00037716955
19	0x3db0e346	0.08637099
20	0x3c8d374a	0.017238278
21	0x3d9e0d0c	0.07717332
22	0xbd6ad305	-0.05733015
23	0x3d9097ba	0.070601895
24	0xbd88556d	-0.06656919
25	0x3d19d702	0.037558563
26	0xbd646fa2	-0.055770524
27	0xbd310847	-0.043220785
28	0xbd2fe749	-0.04294518
29	0xbc67b415	-0.014142056
30	0xbc3f27cd	-0.011667204
31	0xbd029cfc	-0.031887993
32	0xbd9561b9	-0.0729403
33	0x3cb74d48	0.022375718
34	0x3d7d98e9	0.061913405
35	0x3cd0940e	0.025461223
36	0x3cb23544	0.021753915
37	0xbd6be97c	-0.057595715
38	0xbc02c1d8	-0.007980786
39	0x3d5e5d79	0.05428836
40	0xbc975022	-0.018470827
41	0x3c87df41	0.016585948
42	0xbdacac1a	-0.08431263
43	0xbcf4bf35	-0.02987633
44	0xbd2ed87e	-0.04268693
45	0xbdb2861f	-0.08716988
46	0x3c656811	0.014001862
47	0xbb5c8941	-0.0033651146
48	0x3d5e5a7f	0.054285523
49	0xbc871774	-0.016490676
50	0x3d7bf332	0.061511226
51	0xbbc60c40	-0.006043941
52	0x3c31731c	0.010830667
53	0xbd292f72	-0.041305013
54	0xbc9a5db8	-0.018843517
55	0x3c195774	0.009359229
56	0xbb9b8744	-0.0047463495
57	0xbd107aa7	-0.03527322
58	0x3c0bef49	0.008540937
59	0xbd056575	-0.03256746
60	0xbd1b821f	-0.03796589
61	0xbdaa3aa0	-0.08311963
62	0x3d0492b1	0.03236646
63	0x3cab9735	0.020946125
64	0x3d03c9c9	0.03217486
65	0xbc062f75	-0.008190026
66	0xbd6dacc8	-0.058026105
67	0xbd276c25	-0.04087462
68	0xbbb2c491	-0.0054555614
69	0xbd697cb6	-0.0570037
70	0x3ba3b586	0.0049960045
71	0xbd0c275a	-0.034217216
72	0xbdb1ad04	-0.08675578
73	0xbd903ddd	-0.070430495
74	0xbd79f929	-0.061028633
75	0xbdb88ff7	-0.09011834
76	0x3ccebe53	0.025237238
77	0xbc21d3b2	-0.009877132
78	0xbc59e5c8	-0.013299413
79	0x3d9f0977	0.07765477
80	0xbd1c7e78	-0.038206547
81	0xbd7df447	-0.06200054
82	0xbd6b4a7c	-0.05744408
83	0x3d810ec5	0.06301645
84	0xbd56c70d	-0.052435923
85	0xbca20cc5	-0.01978148
86	0xb9b7339a	-0.00034942926
87	0xbcc42b77	-0.023946507
88	0x3b963233	0.004583621
89	0x3c19b097	0.009380481
90	0xbd3294c9	-0.043598924
91	0x3956aa9a	0.00020472184
92	0xbca14fec	-0.01969143
93	0xbcf00329	-0.029298382
94	0xbd3eafee	-0.0465545
95	0x3d18d0ad	0.037308384
96	0x3d2d0e56	0.04225
97	0x3d9f3a09	0.07774741
98	0xbd5ecb23	-0.054392945
99	0xbd120e09	-0.035657916
100	0x3cd8c715	0.026462117
101	0xbd15ab36	-0.036540233
102	0xbca74ad3	-0.020421421
103	0xbd0dc198	-0.034608454
104	0xbd5326e9	-0.05155078
105	0x3d0617a4	0.03273739
106	0xbc026f9c	-0.00796118
107	0xbcb14035	-0.021637062
108	0xbc39bed0	-0.011336997
109	0x3d53f3be	0.051746123
110	0x3d9032c0	0.0704093
111	0xbb76bb39	-0.0037648214
112	0x3d36b49e	0.044605844
113	0x3da64d8b	0.08120259
114	0xbd0c9e96	-0.034330927
115	0xba991273	-0.0011678472
116	0xbd9dbbb3	-0.077018164
117	0x3d4632de	0.048388354
118	0x3bd2db18	0.0064348094
119	0x3d25625c	0.040377006
120	0xbd4997c4	-0.049217
121	0xbd68393d	-0.05669521
122	0xbd89fd98	-0.06737822
123	0x3ad20d73	0.0016025737
124	0x3c45d3e5	0.012074445
125	0x3a5136ff	0.00079809123
126	0x3c6c5081	0.0144234905
127	0x3c17537e	0.009236215
128	0x3d71f847	0.059074666
129	0x3c2bd9c4	0.010488931
130	0x3d6b766c	0.057485983
131	0xbd62483e	-0.055244677
132	0xbc924a04	-0.017857559
133	0xbd80b201	-0.062839516
134	0x3c156f23	0.009120735
135	0xbd82956a	-0.06376155
136	0xbd7a4108	-0.061097175
137	0x3d08b326	0.033373974
138	0x3b704fb0	0.0036668591
139	0xbd459134	-0.04823418
140	0xbd688cb0	-0.056774795
141	0xbbf1d7dd	-0.0073804692
142	0x3d03b270	0.032152593
143	0xbce3fd5f	-0.027830778
144	0xbc96d979	-0.018414246
145	0x3d198beb	0.03748695
146	0xbd818da8	-0.06325847
147	0x3d48c525	0.049016137
148	0xbd885aed	-0.06657968
149	0xbd97c9e8	-0.074115574
150	0x3c1e08b9	0.009645634
151	0xbd49e1c7	-0.049287584
152	0xbb0ab48d	-0.0021164746
153	0x3d23b82b	0.039970558
154	0x3cbc97bb	0.02302157
155	0xbca063de	-0.01957887
156	0xbcf3a485	-0.029741535
157	0xbd99657b	-0.07490059
158	0xbce2a2f0	-0.027665585
159	0xb948a03d	-0.0001913318
160	0xbd3d799d	-0.046258558
161	0xbcec1680	-0.028819323
162	0xbbd2cabe	-0.00643286
163	0x3d1ffa67	0.03905716
164	0x3d65b0d8	0.056076854
165	0xbc67ee20	-0.0141558945
166	0xbcd8f2c7	-0.026482953
167	0x384602b5	4.72094e-05
168	0xbcc4e207	-0.02403356
169	0x3cc88bfb	0.02448081
170	0xbd3f7edf	-0.046751853
171	0x3d4ed995	0.05050047
172	0xbcb60d89	-0.022223251
173	0x3d35871a	0.044318296
174	0x3c9c330a	0.019067306
175	0x3d7b250c	0.061314628
176	0xbd5461e7	-0.05185118
177	0x3d4794b7	0.04872581
178	0xbd263b2e	-0.040583782
179	0xbc87d0b7	-0.016579015
180	0x3d67692e	0.05649679
181	0x3d96de0b	0.0736657
182	0xbd921711	-0.07133306
183	0xbd1dc1df	-0.038514968
184	0x3cf83a9a	0.03030138
185	0xbc5dd29e	-0.013538985
186	0xbd7a2696	-0.061071955
187	0xbd51ad44	-0.05119063
188	0xbd71e713	-0.05905826
189	0x3b6f4719	0.0036510883
190	0xbda89e30	-0.08233297
191	0x3c12f4ae	0.008969469
192	0x3d850550	0.06495154
193	0x3d2501c0	0.040284872
194	0x3d07c10f	0.0331431
195	0x3c775166	0.0150950905
196	0x3d796877	0.06089064
197	0xbd1ac1ba	-0.03778241
198	0x3d396ac7	0.045267846
199	0xbb85f05c	-0.004087491
200	0xbc4be21a	-0.0124440435
201	0xbd299fce	-0.041412167
202	0x3d489693	0.048971724
203	0xbc9f73fa	-0.019464482
204	0x3ccd9c5a	0.025098968
205	0xbcc51a3a	-0.024060357
206	0xbca3e05a	-0.02000444
207	0x3d9f9643	0.07792332
208	0xbbbe560d	-0.005808598
209	0xbd73887a	-0.059456326
210	0xbc556f93	-0.01302709
211	0x3ce09b26	0.02741773
212	0xbd773bcd	-0.060359765
213	0xbbdb9083	-0.0067005767
214	0x3d15b194	0.036546305
215	0xbdaecfb6	-0.085357115
216	0xbd2bd429	-0.04195038
217	0xbca0772c	-0.019588076
218	0xbcadcaa4	-0.02121479
219	0x3d3e4fc3	0.046462785
220	0x3b88fc37	0.004180457
221	0x3c5c6d96	0.013453862
222	0x3d6481eb	0.055787962
223	0x3c285f9c	0.010276701
224	0x3c16c4d0	0.009202197
225	0x3bbd8573	0.0057837307
226	0x3da4c763	0.080458425
227	0x3d006509	0.031346355
228	0xbc9791e7	-0.018502189
229	0x3c8bac2a	0.017049868
230	0x3d014fdd	0.031570304
231	0xbcbffdf1	-0.023436518
232	0x3ce29fef	0.027664153
233	0x3cf84044	0.030304082
234	0xbc8c4dc9	-0.017126935
235	0x3d7485a5	0.059697766
236	0xbc1b8f7c	-0.009494659
237	0xbd020c1b	-0.031749826
238	0xbcd17e98	-0.02557306
239	0x3d5012b8	0.0507991
240	0x3ce06d5c	0.027395897
241	0xbd3474f0	-0.044056833
242	0xbd29a7b2	-0.041419692
243	0xbcd82679	-0.026385533
244	0xbd35096c	-0.04419844
245	0xbc14dcdc	-0.00908586
246	0x3d75c40f	0.06000143
247	0x3d121bd9	0.03567109
248	0xbd6b90d8	-0.05751118
249	0x3d2fb005	0.042892475
250	0x3d8ae22a	0.067814186
251	0x3c47564a	0.012166569
252	0x3c483823	0.012220415
253	0xbd8c34c4	-0.06846002
254	0xbd820736	-0.063490316
255	0x3d3b2ff4	0.04570003

encoder.1.conv1.bias f4 [32]
0	0xb8a0e991	-7.6729e-05
1	0x3901d2cb	0.00012380925
2	0xb74578a8	-1.17702075e-05
3	0xb81d7159	-3.753728e-05
4	0xb688d3b7	-4.0777627e-06
5	0xb669c5a8	-3.4834757e-06
6	0x3874ba3c	5.8347578e-05
7	0x381db263	3.7597852e-05
8	0x382ec037	4.1663847e-05
9	0xb664602a	-3.4030622e-06
10	0xb89f3b1f	-7.592723e-05
11	0x36dd4fd0	6.5956046e-06
12	0x38717012	5.756325e-05
13	0x38420718	4.625981e-05
14	0xb81bceba	-3.714741e-05
15	0x36d507bb	6.3487946e-06
16	0xb85d7366	-5.279798e-05
17	0xb889237a	-6.539277e-05
18	0x392c9ed1	0.00016462362
19	0xb841996d	-4.6157675e-05
20	0x38723642	5.7747828e-05
21	0x38cfe4d6	9.913153e-05
22	0x376a0c15	1.39503e-05
23	0x389c86fc	7.4638025e-05
24	0xb81feb77	-3.8127848e-05
25	0xb849dff5	-4.813071e-05
26	0xb87837ac	-5.9179656e-05
27	0x382bbab2	4.094345e-05
28	0x37f4134b	2.909605e-05
29	0xb90065dd	-0.00012244978
30	0x38268bb8	3.9707607e-05
31	0xb8723856	-5.7749763e-05

encoder.1.bn1.weight f4 [32]
0	0x3f72d1d6	0.94851434
1	0x3f6d8f76	0.9279703
2	0x3f82b798	1.0212278
3	0x3f6f205a	0.9340874
4	0x3f682ef6	0.90696657
5	0x3f6bdcb6	0.92133653
6	0x3f7e26e1	0.99278075
7	0x3f706948	0.93910646
8	0x3f6cc4e8	0.92487955
9	0x3f6fe87e	0.9371413
10	0x3f853738	1.0407476
11	0x3f754973	0.958152
12	0x3f768362	0.96294224
13	0x3f670777	0.90245765
14	0x3f5ca8ff	0.8619537
15	0x3f781330	0.9690428
16	0x3f703f96	0.93847024
17	0x3f6f472d	0.9346798
18	0x3f62ae19	0.885469
19	0x3f74799e	0.95498073
20	0x3f6e8308	0.9316869
21	0x3f6e09ed	0.92983896
22	0x3f700479	0.93756825
23	0x3f6c5efc	0.92332435
24	0x3f65db86	0.8978809
25	0x3f67e5ee	0.9058522
26	0x3f8286e0	1.019741
27	0x3f819558	1.0123701
28	0x3f6acd7e	0.91719806
29	0x3f71f8e6	0.94520414
30	0x3f6de3c9	0.929257
31	0x3f6a928d	0.9162987

encoder.1.bn1.bias f4 [32]
0	0x3d941fe8	0.07232648
1	0xbcae98f8	-0.021313176
2	0xbd195b23	-0.03744043
3	0xbcf8d47b	-0.030374756
4	0x3d1a0348	0.037600785
5	0x3cdf150e	0.02723172
6	0xbdc2667a	-0.09492202
7	0x3d967d3b	0.073481046
8	0x3cedabdb	0.029012611
9	0x3df827aa	0.1211694
10	0xbd7611eb	-0.06007568
11	0xbd2b6d11	-0.04185206
12	0xbd985f42	-0.07440044
13	0xbdb11e59	-0.086483665
14	0x3a16e80f	0.00057566253
15	0xbd5e689b	-0.05429898
16	0x3cc469ff	0.023976324
17	0x3d9cdb99	0.076590724
18	0x3d217691	0.039419714
19	0xbdd6cc63	-0.104882024
20	0xbc895549	-0.0167643
21	0xbbaaa9fc	-0.005208252
22	0x3e179cad	0.14805861
23	0xbdd168ca	-0.10225065
24	0x3e25a0bd	0.16174598
25	0x3d72dbb4	0.059291556
26	0xbe06d86b	-0.13168494
27	0xbe092cc7	-0.13395987
28	0x3dc76e88	0.09737879
29	0xbd27c2c4	-0.040957227
30	0x3dc41328	0.09573966
31	0x3df837b1	0.12119997

encoder.1.bn1.running_mean f4 [32]
0	0xbe38f29b	-0.18061297
1	0x3eb0b56d	0.34513417
2	0xbc813804	-0.01577378
3	0xbda0aa7a	-0.07845016
4	0xbe5e28f5	-0.21695311
5	0xbe540714	-0.20705825
6	0xbed8962c	-0.42302072
7	0xbeac6280	-0.336689
8	0x3c8049a6	0.015660118
9	0x3e3219f6	0.17392716
10	0xbe22c9f3	-0.1589735
11	0xbd84a07f	-0.06475925
12	0xbb693fdc	-0.0035591042
13	0xbeef53f4	-0.4674374
14	0x3e8aae08	0.270859
15	0xbe97d875	-0.2965733
16	0xbe9fdc48	-0.3122275
17	0x3f13f66e	0.57797897
18	0x3dcd6ccb	0.10030516
19	0x3f1221de	0.5708293
20	0xbdfdd3ff	-0.12393951
21	0x3efe91df	0.49720666
22	0x3ef1cc69	0.47226265
23	0xbdf3b8c7	-0.11900478
24	0x3e14680f	0.1449282
25	0x3ec98026	0.39355582
26	0xbeae057d	-0.33988562
27	0x3e0c8847	0.1372386
28	0x3e4f6d5b	0.2025656
29	0xbea0ca03	-0.31404123
30	0x3ee74aba	0.451742
31	0x3e094adc	0.13407463

encoder.1.bn1.running_var f4 [32]
0	0x3f9b1303	1.2115177
1	0x3f053a79	0.5204235
2	0x3f7776e2	0.96665776
3	0x3e591a27	0.21201383
4	0x3e9fff3d	0.3124942
5	0x3e89f276	0.26942796
6	0x3ea10a83	0.31453332
7	0x3e9ddb26	0.3083126
8	0x3f10be10	0.5654001
9	0x3efa49e7	0.48884508
10	0x3ec31291	0.38100103
11	0x3e890bf8	0.26766944
12	0x3e9d78c9	0.30756214
13	0x3f2b496f	0.66908926
14	0x3e5afb22	0.21384862
15	0x3ef2874f	0.47368857
16	0x3fd06463	1.6280636
17	0x3f20f571	0.62874514
18	0x3e32a264	0.1744476
19	0x3f1b1057	0.6057181
20	0x3ebaa985	0.36457458
21	0x3ecf499a	0.4048584
22	0x3f60cf0d	0.87815934
23	0x3e0a9da6	0.135367
24	0x3ebe042d	0.3711256
25	0x3e943bfc	0.28952014
26	0x3f067a2d	0.52530175
27	0x3e76ff73	0.24120884
28	0x3f423de2	0.75875676
29	0x3e7bd971	0.24594666
30	0x3efa556f	0.48893306
31	0x3e0be255	0.13660558

encoder.1.conv2.weight f4 [32, 32, 2, 3]
0	0xbd0a1637	-0.033712592
1	0x3d6e0472	0.058109708
2	0x3d056ed1	0.032576386
3	0xbc1cac96	-0.009562632
4	0x3cde3ea9	0.027129488
5	0xbbc5b80d	-0.0060339035
6	0xbd4e3b2e	-0.050349407
7	0x3c080436	0.008301785
8	0xbc053659	-0.008130633
9	0x3cb8f87a	0.02257942
10	0x3c88f346	0.016717564
11	0x3d94072b	0.0722793
12	0xbd342c7c	-0.043987736
13	0xbc2fecc5	-0.010737603
14	0x3d0fce08	0.035108596
15	0xbd8000ab	-0.062501274
16	0xbbc83832	-0.0061102146
17	0xbd909c34	-0.070610434
18	0x3d1d47d0	0.038398564
19	0x3d113a9c	0.035456285
20	0xbcc2d16d	-0.023781503
21	0x3cca45fb	0.024691572
22	0xbc9b1927	-0.018932892
23	0x3d064d34	0.03278847
24	0x3d31195c	0.043237075
25	0xbb8359f8	-0.004008528
26	0x3c5d6329	0.013512411
27	0x3c788cbc	0.015170272
28	0xbcb44529	-0.022005634
29	0xbd7c4315	-0.061587412
30	0x3d0826ce	0.033240132
31	0xbd4589a4	-0.048226967
32	0xbd55b6de	-0.05217635
33	0x3d33f2f4	0.04393287
34	0xbcf0a693	-0.029376304
35	0x3c9aeabd	0.01891076
36	0xbd06b6a1	-0.032889012
37	0x3c7dcb92	0.0154904295
38	0x3d595121	0.053055886
39	0x3d05e62d	0.032690216
40	0x3d08b931	0.033379737
41	0x3d3a31fc	0.045457825
42	0xbd2fbff6	-0.042907678
43	0x3d5833a3	0.05278362
44	0x3d53c83d	0.051704634
45	0x3c26ec25	0.010188137
46	0x3d1afcec	0.03783886
47	0x3c8e8466	0.017397117
48	0x3d823bee	0.06359087
49	0x3cf43351	0.029809626
50	0xbd2b829b	-0.041872602
51	0xbdb850a1	-0.08999754
52	0x3c164650	0.009172037
53	0xbcf6ec8f	-0.030142097
54	0xbb356966	-0.002768123
55	0x3c014795	0.007890602
56	0x3d853f31	0.065061934
57	0x3c59b50e	0.013287796
58	0xbcc25b9d	-0.023725325
59	0x3c8fef84	0.017570265
60	0x3d8f5a8b	0.069996916
61	0x3d89217a	0.06695838
62	0xbc906fd6	-0.017631453
63	0x3d5ce85f	0.053932544
64	0xbc864b87	-0.016393436
65	0x3d9cadbf	0.07650327
66	0x3b95ef88	0.0045756735
67	0xbd56c146	-0.052430414
68	0x3d8d9e06	0.06914906
69	0xbcadf6e2	-0.021235887
70	0x3cc2d4f5	0.023783186
71	0xbcf91337	-0.03040467
72	0x3cbaa37d	0.022783035
73	0x3d380254	0.044924095
74	0x3cea384a	0.028591294
75	0x3d0f311e	0.03495895
76	0xbc636ef8	-0.0138814375
77	0xbc8b36e3	-0.016993945
78	0xbc1fc74f	-0.009752109
79	0x3b047ca3	0.002021589
80	0xbd5bf32a	-0.053698696
81	0x3d53d6ab	0.051718395
82	0xbd1d4b4b	-0.038401883
83	0x3d310fd9	0.043228004
84	0xbd33c14b	-0.04388551
85	0x3cb94956	0.022617977
86	0x3d5d52ff	0.05403423
87	0x3c944e56	0.01810376
88	0xbd99437f	-0.07483577
89	0xbd53acd8	-0.05167851
90	0xbd87816c	-0.06616482
91	0x3d68ed5f	0.056867
92	0xbd1850cc	-0.03718643
93	0x3c420a7d	0.011843321
94	0xbd30c11b	-0.04315291
95	0x3dadd458	0.08487767
96	0x3cef2150	0.02919069
97	0x3ceec4e8	0.029146627
98	0xbaf72eec	-0.0018858588
99	0x3cd65e55	0.026168028
100	0xbd739398	-0.05946693
101	0x3d0cfdc5	0.0344217
102	0xba9e6035	-0.0012083115
103	0xbd803b33	-0.06261291
104	0xbd1dda52	-0.038538285
105	0xbc1c61a1	-0.009544761
106	0x3d777f5c	0.060424194
107	0xbd8253f7	-0.06363671
108	0x3be38c33	0.0069442033
109	0xbc651872	-0.013982879
110	0x3d806a22	0.06270243
111	0xbdb5de3f	-0.08880281
112	0x3d9a9cb1	0.07549418
113	0xbd454908	-0.04816535
114	0xbd246436	-0.04013463
115	0xbd6dc0a0	-0.05804503
116	0xbd027e66	-0.031858824
117	0xbc426939	-0.011865907
118	0x3bf58722	0.0074929157
119	0xbd03ce4e	-0.03217917
120	0xbd45b53c	-0.04826854
121	0x3d1c5892	0.038170405
122	0x3da51346	0.08060317
123	0xbd89fe90	-0.06738007
124	0x3d23365d	0.039846767
125	0x3c849bdb	0.016187599
126	0x3d81dcd4	0.06340948
127	0x3c462245	0.012093131
128	0x3c10d7ef	0.008840545
129	0xbd89c6e1	-0.06727386
130	0xbc59b688	-0.013288148
131	0xbd4aba5e	-0.04949414
132	0x3d55834f	0.05212718
133	0x3d0103a1	0.0314976
134	0x3d69326b	0.056932848
135	0xbcbe539c	-0.023233227
136	0x3d2e1d29	0.042508278
137	0xbcdbf6f6	-0.026851159
138	0x3d61638a	0.05502657
139	0x3cbf8a9c	0.023381524
140	0x3c145cb5	0.009055306
141	0x3cdb9ea1	0.026809039
142	0x3cda82ea	0.026673753
143	0x3d0e2a1e	0.034708135
144	0xbd81d03d	-0.063385464
145	0x3d31241e	0.043247335
146	0xbc607bb1	-0.013701365
147	0xbac0ec66	-0.001471889
148	0xbc64f6ca	-0.013974855
149	0x3d39e9f4	0.04538913
150	0x3d4238b0	0.047417343
151	0x3d3e8a21	0.04651845
152	0x3cef1274	0.029183604
153	0x3d6855d3	0.056722473
154	0xbc08bf32	-0.008346366
155	0xbd83924c	-0.06424388
156	0x3d3ab4ac	0.04558246
157	0xbbc23b24	-0.0059274603
158	0xbd0f0392	-0.034915514
159	0x3d5d60c3	0.054047357
160	0xbcd29f53	-0.025710737
161	0x3d980766	0.07423286
162	0x3d256ade	0.04038512
163	0xbb9ce453	-0.0047879606
164	0xbcd1b2ef	-0.025598017
165	0xb9932b37	-0.00028070222
166	0xbd20159f	-0.03908312
167	0xbce2327f	-0.027611969
168	0xbcc45043	-0.023964053
169	0xbcd38e6e	-0.025824752
170	0x3c36deeb	0.011161546
171	0xbd09e6c9	-0.03366736
172	0x3c5e92a6	0.013584768
173	0xbd4316d1	-0.04762918
174	0x3d3aa17d	0.045564163
175	0x3d0eb0d0	0.03483659
176	0xbd09144b	-0.03346662
177	0x3da768bb	0.081742726
178	0x3d798ad5	0.060923416
179	0xbc801725	-0.015636036
180	0x3c94c89f	0.01816207
181	0xbd5a6046	-0.05331447
182	0x3d092e66	0.033491515
183	0x3d2f4204	0.042787567
184	0xbd4db6f9	-0.050223324
185	0x3d7d1bc5	0.06179406
186	0xbc2fb576	-0.010724416
187	0xbce1979e	-0.027538117
188	0x3bcb5801	0.0062055592
189	0xbc8c4433	-0.017122364
190	0xbd614067	-0.05499306
191	0x3d24f2ed	0.040270735
192	0x3d1e6822	0.038673528
193	0xbd0cb37c	-0.034350857
194	0x3d1e6cc5	0.03867795
195	0x3c3bbf79	0.011459225
196	0x3c8bad2f	0.017050354
197	0x3d3de189	0.046357665
198	0xbbb2a24a	-0.0054514753
199	0xbd458a41	-0.048227552
200	0xbd26f223	-0.040758263
201	0xbdabb4d6	-0.08384101
202	0xbc1960b3	-0.009361434
203	0x3d32e1db	0.043672424
204	0xbb9ead1d	-0.004842414
205	0x3bee380b	0.0072698644
206	0x3dd54e46	0.1041532
207	0x3d6c79e2	0.057733424
208	0xbd68d3d8	-0.056842655
209	0x3dd2ecb8	0.10299057
210	0x3d6ab61e	0.057302587
211	0xbd04ecda	-0.03245244
212	0xbd9a25e3	-0.075267576
213	0x3ce490e4	0.02790112
214	0x3ce5a3fe	0.0280323
215	0xba5c0399	-0.000839287
216	0x3d619770	0.055076063
217	0x3d03d700	0.03218746
218	0x3da3824a	0.07983835
219	0x3cc5c3f5	0.024141291
220	0xbd8a7b58	-0.06761807
221	0xbd1c0842	-0.038093813
222	0xbc5fd4af	-0.013661548
223	0x3ba2a10e	0.004963047
224	0xbc279b48	-0.010229893
225	0x3d1eaf29	0.038741264
226	0xbd76c349	-0.060244832
227	0xbcb05924	-0.02152688
228	0x3ccb18d8	0.02479212
229	0xbd7b091d	-0.061287988
230	0xbc9c9c3b	-0.019117465
231	0x3d3166ff	0.043311115
232	0x3d2c3f19	0.042052362
233	0xbcc0237e	-0.023454424
234	0x3cfb07f1	0.030643435
235	0xbd5fb38e	-0.054614596
236	0x3c98f876	0.018673163
237	0xbcc4e534	-0.024035074
238	0x3cc11de7	0.023573829
239	0xbcb67b1f	-0.022275506
240	0xbd424960	-0.047433257
241	0x3b9ef9c9	0.004851554
242	0xbcda592d	-0.02665385
243	0x3d3eb18e	0.046556048
244	0x3d991f39	0.074766584
245	0x3d87f7fd	0.06639097
246	0xbd414063	-0.047180545
247	0x3956dd25	0.00020491013
248	0xbbe640fe	-0.0070267906
249	0xbd99b1b4	-0.07504597
250	0xbcddecdb	-0.02709048
251	0x3c98b797	0.01864223
252	0xbca69783	-0.020335918
253	0x3ce3063f	0.02771294
254	0x3c4ab565	0.012372349
255	0xbd7111a6	-0.05885472

encoder.1.conv2.bias f4 [32]
0	0xbcf822d3	-0.030290043
1	0xbc67a03a	-0.014137322
2	0x3b2ec5c5	0.0026668173
3	0xbd3f336a	-0.04667989
4	0xbc8cc6cb	-0.017184636
5	0xbd770855	-0.06031068
6	0x3d2e6c8e	0.042583995
7	0xba9141e5	-0.001108226
8	0x3d993449	0.07480676
9	0xbd8c2bf1	-0.06844319
10	0x3b818660	0.0039527863
11	0x3c7debe3	0.015498134
12	0xbd013457	-0.031544056
13	0xbd96f221	-0.07370401
14	0x3dac89d8	0.08424729
15	0xbcdffd4f	-0.027342467
16	0xbcf68ece	-0.030097391
17	0xbe00f542	-0.12593558
18	0xbd9a1ba1	-0.07524801
19	0xb92b8492	-0.00016357217
20	0xbd3f2911	-0.046670023
21	0xbb3cc9c1	-0.0028806778
22	0x3c3f6f84	0.011684302
23	0x3d23f3bd	0.04002737
24	0x3da02098	0.07818717
25	0x3d1c3734	0.038138583
26	0xbde0812d	-0.10962138
27	0xbd07ee7a	-0.033186413
28	0x3c2d73cb	0.010586689
29	0xbdfd2849	-0.123611994
30	0xbd49278c	-0.04910998
31	0x3b9de752	0.0048188353
